Layer (type)                    Output Shape         Param #     Connected to                     
==================================================================================================
input_1 (InputLayer)            (None, 2, 64, 320)   0                                            
__________________________________________________________________________________________________
lambda_1 (Lambda)               (None, 2, 20, 320)   0           input_1[0][0]                    
__________________________________________________________________________________________________
lambda_2 (Lambda)               (None, 2, 20, 320)   0           input_1[0][0]                    
__________________________________________________________________________________________________
lambda_3 (Lambda)               (None, 2, 20, 320)   0           input_1[0][0]                    
__________________________________________________________________________________________________
lambda_4 (Lambda)               (None, 2, 20, 320)   0           input_1[0][0]                    
__________________________________________________________________________________________________
lambda_5 (Lambda)               (None, 2, 20, 320)   0           input_1[0][0]                    
__________________________________________________________________________________________________
conv2d_1 (Conv2D)               (None, 32, 20, 320)  608         lambda_1[0][0]                   
__________________________________________________________________________________________________
conv2d_3 (Conv2D)               (None, 32, 20, 320)  608         lambda_2[0][0]                   
__________________________________________________________________________________________________
conv2d_5 (Conv2D)               (None, 32, 20, 320)  608         lambda_3[0][0]                   
__________________________________________________________________________________________________
conv2d_7 (Conv2D)               (None, 32, 20, 320)  608         lambda_4[0][0]                   
__________________________________________________________________________________________________
conv2d_9 (Conv2D)               (None, 32, 20, 320)  608         lambda_5[0][0]                   
__________________________________________________________________________________________________
batch_normalization_1 (BatchNor (None, 32, 20, 320)  128         conv2d_1[0][0]                   
__________________________________________________________________________________________________
batch_normalization_3 (BatchNor (None, 32, 20, 320)  128         conv2d_3[0][0]                   
__________________________________________________________________________________________________
batch_normalization_5 (BatchNor (None, 32, 20, 320)  128         conv2d_5[0][0]                   
__________________________________________________________________________________________________
batch_normalization_7 (BatchNor (None, 32, 20, 320)  128         conv2d_7[0][0]                   
__________________________________________________________________________________________________
batch_normalization_9 (BatchNor (None, 32, 20, 320)  128         conv2d_9[0][0]                   
__________________________________________________________________________________________________
activation_1 (Activation)       (None, 32, 20, 320)  0           batch_normalization_1[0][0]      
__________________________________________________________________________________________________
activation_3 (Activation)       (None, 32, 20, 320)  0           batch_normalization_3[0][0]      
__________________________________________________________________________________________________
activation_5 (Activation)       (None, 32, 20, 320)  0           batch_normalization_5[0][0]      
__________________________________________________________________________________________________
activation_7 (Activation)       (None, 32, 20, 320)  0           batch_normalization_7[0][0]      
__________________________________________________________________________________________________
activation_9 (Activation)       (None, 32, 20, 320)  0           batch_normalization_9[0][0]      
__________________________________________________________________________________________________
max_pooling2d_1 (MaxPooling2D)  (None, 32, 10, 160)  0           activation_1[0][0]               
__________________________________________________________________________________________________
max_pooling2d_3 (MaxPooling2D)  (None, 32, 10, 160)  0           activation_3[0][0]               
__________________________________________________________________________________________________
max_pooling2d_5 (MaxPooling2D)  (None, 32, 10, 160)  0           activation_5[0][0]               
__________________________________________________________________________________________________
max_pooling2d_7 (MaxPooling2D)  (None, 32, 10, 160)  0           activation_7[0][0]               
__________________________________________________________________________________________________
max_pooling2d_9 (MaxPooling2D)  (None, 32, 10, 160)  0           activation_9[0][0]               
__________________________________________________________________________________________________
conv2d_2 (Conv2D)               (None, 64, 10, 160)  18496       max_pooling2d_1[0][0]            
__________________________________________________________________________________________________
conv2d_4 (Conv2D)               (None, 64, 10, 160)  18496       max_pooling2d_3[0][0]            
__________________________________________________________________________________________________
conv2d_6 (Conv2D)               (None, 64, 10, 160)  18496       max_pooling2d_5[0][0]            
__________________________________________________________________________________________________
conv2d_8 (Conv2D)               (None, 64, 10, 160)  18496       max_pooling2d_7[0][0]            
__________________________________________________________________________________________________
conv2d_10 (Conv2D)              (None, 64, 10, 160)  18496       max_pooling2d_9[0][0]            
__________________________________________________________________________________________________
batch_normalization_2 (BatchNor (None, 64, 10, 160)  256         conv2d_2[0][0]                   
__________________________________________________________________________________________________
batch_normalization_4 (BatchNor (None, 64, 10, 160)  256         conv2d_4[0][0]                   
__________________________________________________________________________________________________
batch_normalization_6 (BatchNor (None, 64, 10, 160)  256         conv2d_6[0][0]                   
__________________________________________________________________________________________________
batch_normalization_8 (BatchNor (None, 64, 10, 160)  256         conv2d_8[0][0]                   
__________________________________________________________________________________________________
batch_normalization_10 (BatchNo (None, 64, 10, 160)  256         conv2d_10[0][0]                  
__________________________________________________________________________________________________
activation_2 (Activation)       (None, 64, 10, 160)  0           batch_normalization_2[0][0]      
__________________________________________________________________________________________________
activation_4 (Activation)       (None, 64, 10, 160)  0           batch_normalization_4[0][0]      
__________________________________________________________________________________________________
activation_6 (Activation)       (None, 64, 10, 160)  0           batch_normalization_6[0][0]      
__________________________________________________________________________________________________
activation_8 (Activation)       (None, 64, 10, 160)  0           batch_normalization_8[0][0]      
__________________________________________________________________________________________________
activation_10 (Activation)      (None, 64, 10, 160)  0           batch_normalization_10[0][0]     
__________________________________________________________________________________________________
max_pooling2d_2 (MaxPooling2D)  (None, 64, 4, 80)    0           activation_2[0][0]               
__________________________________________________________________________________________________
max_pooling2d_4 (MaxPooling2D)  (None, 64, 4, 80)    0           activation_4[0][0]               
__________________________________________________________________________________________________
max_pooling2d_6 (MaxPooling2D)  (None, 64, 4, 80)    0           activation_6[0][0]               
__________________________________________________________________________________________________
max_pooling2d_8 (MaxPooling2D)  (None, 64, 4, 80)    0           activation_8[0][0]               
__________________________________________________________________________________________________
max_pooling2d_10 (MaxPooling2D) (None, 64, 4, 80)    0           activation_10[0][0]              
__________________________________________________________________________________________________
flatten_1 (Flatten)             (None, 20480)        0           max_pooling2d_2[0][0]            
__________________________________________________________________________________________________
flatten_2 (Flatten)             (None, 20480)        0           max_pooling2d_4[0][0]            
__________________________________________________________________________________________________
flatten_3 (Flatten)             (None, 20480)        0           max_pooling2d_6[0][0]            
__________________________________________________________________________________________________
flatten_4 (Flatten)             (None, 20480)        0           max_pooling2d_8[0][0]            
__________________________________________________________________________________________________
flatten_5 (Flatten)             (None, 20480)        0           max_pooling2d_10[0][0]           
__________________________________________________________________________________________________
dense_1 (Dense)                 (None, 32)           655392      flatten_1[0][0]                  
__________________________________________________________________________________________________
dense_2 (Dense)                 (None, 32)           655392      flatten_2[0][0]                  
__________________________________________________________________________________________________
dense_3 (Dense)                 (None, 32)           655392      flatten_3[0][0]                  
__________________________________________________________________________________________________
dense_4 (Dense)                 (None, 32)           655392      flatten_4[0][0]                  
__________________________________________________________________________________________________
dense_5 (Dense)                 (None, 32)           655392      flatten_5[0][0]                  
__________________________________________________________________________________________________
concatenate_1 (Concatenate)     (None, 160)          0           dense_1[0][0]                    
                                                                 dense_2[0][0]                    
                                                                 dense_3[0][0]                    
                                                                 dense_4[0][0]                    
                                                                 dense_5[0][0]                    
__________________________________________________________________________________________________
dense_6 (Dense)                 (None, 128)          20608       concatenate_1[0][0]              
__________________________________________________________________________________________________
dense_7 (Dense)                 (None, 64)           8256        dense_6[0][0]                    
__________________________________________________________________________________________________
dense_8 (Dense)                 (None, 10)           650         dense_7[0][0]                    
==================================================================================================
Total params: 3,403,914
Trainable params: 3,402,954
Non-trainable params: 960
__________________________________________________________________________________________________

Process finished with exit code 0
