__________________________________________________________________________________________________
Layer (type)                    Output Shape         Param #     Connected to                     
==================================================================================================
input_1 (InputLayer)            (None, 3, 320, 64)   0                                            
__________________________________________________________________________________________________
conv2d_1 (Conv2D)               (None, 64, 320, 64)  1728        input_1[0][0]                    
__________________________________________________________________________________________________
batch_normalization_1 (BatchNor (None, 64, 320, 64)  256         conv2d_1[0][0]                   
__________________________________________________________________________________________________
activation_1 (Activation)       (None, 64, 320, 64)  0           batch_normalization_1[0][0]      
__________________________________________________________________________________________________
max_pooling2d_1 (MaxPooling2D)  (None, 64, 160, 32)  0           activation_1[0][0]               
__________________________________________________________________________________________________
conv2d_2 (Conv2D)               (None, 128, 160, 32) 73728       max_pooling2d_1[0][0]            
__________________________________________________________________________________________________
batch_normalization_2 (BatchNor (None, 128, 160, 32) 512         conv2d_2[0][0]                   
__________________________________________________________________________________________________
activation_2 (Activation)       (None, 128, 160, 32) 0           batch_normalization_2[0][0]      
__________________________________________________________________________________________________
max_pooling2d_2 (MaxPooling2D)  (None, 128, 80, 16)  0           activation_2[0][0]               
__________________________________________________________________________________________________
conv2d_3 (Conv2D)               (None, 256, 80, 16)  294912      max_pooling2d_2[0][0]            
__________________________________________________________________________________________________
batch_normalization_3 (BatchNor (None, 256, 80, 16)  1024        conv2d_3[0][0]                   
__________________________________________________________________________________________________
activation_3 (Activation)       (None, 256, 80, 16)  0           batch_normalization_3[0][0]      
__________________________________________________________________________________________________
max_pooling2d_3 (MaxPooling2D)  (None, 256, 40, 8)   0           activation_3[0][0]               
__________________________________________________________________________________________________
conv2d_4 (Conv2D)               (None, 512, 40, 8)   1179648     max_pooling2d_3[0][0]            
__________________________________________________________________________________________________
batch_normalization_4 (BatchNor (None, 512, 40, 8)   2048        conv2d_4[0][0]                   
__________________________________________________________________________________________________
activation_4 (Activation)       (None, 512, 40, 8)   0           batch_normalization_4[0][0]      
__________________________________________________________________________________________________
max_pooling2d_4 (MaxPooling2D)  (None, 512, 20, 4)   0           activation_4[0][0]               
__________________________________________________________________________________________________
conv2d_transpose_1 (Conv2DTrans (None, 256, 40, 8)   1179648     max_pooling2d_4[0][0]            
__________________________________________________________________________________________________
batch_normalization_5 (BatchNor (None, 256, 40, 8)   1024        conv2d_transpose_1[0][0]         
__________________________________________________________________________________________________
conv2d_transpose_2 (Conv2DTrans (None, 128, 80, 16)  294912      max_pooling2d_3[0][0]            
__________________________________________________________________________________________________
activation_5 (Activation)       (None, 256, 40, 8)   0           batch_normalization_5[0][0]      
__________________________________________________________________________________________________
batch_normalization_6 (BatchNor (None, 128, 80, 16)  512         conv2d_transpose_2[0][0]         
__________________________________________________________________________________________________
concatenate_1 (Concatenate)     (None, 256, 40, 16)  0           activation_5[0][0]               
                                                                 max_pooling2d_3[0][0]            
__________________________________________________________________________________________________
activation_6 (Activation)       (None, 128, 80, 16)  0           batch_normalization_6[0][0]      
__________________________________________________________________________________________________
conv2d_6 (Conv2D)               (None, 64, 40, 16)   16448       concatenate_1[0][0]              
__________________________________________________________________________________________________
concatenate_2 (Concatenate)     (None, 128, 80, 32)  0           activation_6[0][0]               
                                                                 max_pooling2d_2[0][0]            
__________________________________________________________________________________________________
batch_normalization_8 (BatchNor (None, 64, 40, 16)   256         conv2d_6[0][0]                   
__________________________________________________________________________________________________
conv2d_8 (Conv2D)               (None, 32, 80, 32)   4128        concatenate_2[0][0]              
__________________________________________________________________________________________________
conv2d_5 (Conv2D)               (None, 64, 40, 16)   16448       concatenate_1[0][0]              
__________________________________________________________________________________________________
activation_8 (Activation)       (None, 64, 40, 16)   0           batch_normalization_8[0][0]      
__________________________________________________________________________________________________
conv2d_7 (Conv2D)               (None, 32, 80, 32)   4128        concatenate_2[0][0]              
__________________________________________________________________________________________________
batch_normalization_10 (BatchNo (None, 32, 80, 32)   128         conv2d_8[0][0]                   
__________________________________________________________________________________________________
batch_normalization_7 (BatchNor (None, 64, 40, 16)   256         conv2d_5[0][0]                   
__________________________________________________________________________________________________
lambda_1 (Lambda)               (None, 64, 40, 16)   0           activation_8[0][0]               
__________________________________________________________________________________________________
batch_normalization_9 (BatchNor (None, 32, 80, 32)   128         conv2d_7[0][0]                   
__________________________________________________________________________________________________
activation_10 (Activation)      (None, 32, 80, 32)   0           batch_normalization_10[0][0]     
__________________________________________________________________________________________________
activation_7 (Activation)       (None, 64, 40, 16)   0           batch_normalization_7[0][0]      
__________________________________________________________________________________________________
lambda_2 (Lambda)               (None, 64, 40, 16)   0           lambda_1[0][0]                   
__________________________________________________________________________________________________
activation_9 (Activation)       (None, 32, 80, 32)   0           batch_normalization_9[0][0]      
__________________________________________________________________________________________________
lambda_3 (Lambda)               (None, 32, 80, 32)   0           activation_10[0][0]              
__________________________________________________________________________________________________
lambda_4 (Lambda)               (None, 64)           0           activation_7[0][0]               
                                                                 lambda_2[0][0]                   
__________________________________________________________________________________________________
lambda_5 (Lambda)               (None, 32)           0           activation_9[0][0]               
                                                                 lambda_3[0][0]                   
__________________________________________________________________________________________________
concatenate_3 (Concatenate)     (None, 96)           0           lambda_4[0][0]                   
                                                                 lambda_5[0][0]                   
__________________________________________________________________________________________________
dense_1 (Dense)                 (None, 10)           970         concatenate_3[0][0]              
__________________________________________________________________________________________________
activation_11 (Activation)      (None, 10)           0           dense_1[0][0]                    
==================================================================================================
Total params: 3,072,842
Trainable params: 3,069,770
Non-trainable params: 3,072
__________________________________________________________________________________________________

